lightning_logs/version_0/checkpoints/epoch=95-step=4800.ckpt (torch, 307624 bytes, 44 tensors)

model.param_proj.proj.0.weight f4 [1, 40]
000000 cd 5e 9f be fa 1f 80 be bd 89 42 be e9 53 81 3e
       -0.31127015 -0.25024396 -0.18997855 0.2525933
000010 cc 1c b4 3e 30 50 03 3e 49 6b 05 be 8c d1 72 3e
       0.3517822 0.12823558 -0.13029207 0.23712748
000020 b3 56 cf 3c 65 fd 61 be 84 53 3a be f5 c0 e7 bd
       0.025309896 -0.22069319 -0.18195921 -0.113161005
000030 4a f6 58 bd 31 30 9f be 81 20 27 be c0 ba 75 3e
       -0.052969255 -0.31091455 -0.16320993 0.2399702
000040 d4 4e d6 be 33 e7 0d 3e c8 4c 79 be 7c d9 78 be
       -0.41857016 0.13857727 -0.24345696 -0.24301714
000050 9c 2a 9c 3e 13 b2 25 be df 35 14 be e9 44 a0 be
       0.30501258 -0.16181211 -0.14473675 -0.31302574
000060 24 6d 6b 3e 42 21 a6 be fd 84 99 3c 2e 3d b6 3d
       0.22990853 -0.3244725 0.018740172 0.08898388
000070 88 a8 6c 3e 1b 57 07 be e4 75 71 3e 34 85 ae 3e
       0.23111165 -0.13216822 0.23580128 0.34086
000080 35 b7 3d 3e 56 c0 6a 3e 0d 76 bb be 64 0d a6 be
       0.18526919 0.22924933 -0.36613503 -0.3243209
000090 f6 15 2b be fb bc 07 be 48 9c 57 3e a9 17 89 3e
       -0.16707596 -0.13255684 0.2105571 0.26775864

model.param_proj.proj.1.weight f4 [1, 40]
000000 cb 14 0b 3e 9b 29 8e bd fc b7 96 3d 2b d4 06 3e
       0.1358215 -0.06941529 0.07359311 0.13166873
000010 18 89 76 3d 0a e2 2e 3c 04 49 a1 3c 81 00 5e 3d
       0.060189337 0.010674009 0.019688137 0.0541997
000020 05 11 14 bc d1 ca 05 be 86 a1 d0 3d 6f ea dc bd
       -0.009037261 -0.1306565 0.10187058 -0.10786902
000030 da 1e 1d 3e b4 04 05 3c aa 8a 00 3e ec a1 2a bd
       0.153438 0.008118797 0.12552896 -0.041658327
000040 5a c1 1b be ca 4d 9d ba 85 89 05 3e 65 9a bd 3d
       -0.15210477 -0.0012001332 0.13040741 0.09257964
000050 9f d1 2e 3d b9 b0 46 be 4d 82 42 3d 52 28 97 bd
       0.04268038 -0.19403352 0.047487546 -0.07380737
000060 29 0f d3 bd b2 e3 94 3d 69 a4 05 3c f1 41 84 bd
       -0.10305626 0.07269992 0.008156874 -0.0645789
000070 d6 8b b1 3b 20 ed 9d 3d 89 48 aa 3d 13 0d a3 3d
       0.005418281 0.07711244 0.08314616 0.07961478
000080 d5 c1 9d bd 1d 7e 03 3d 3e 2f af bc 25 96 7d 3d
       -0.07702986 0.032102693 -0.021384832 0.061910767
000090 a1 ce a7 3d e0 01 f8 3d 2f 63 59 bc dc 4e 2a bc
       0.08193708 0.12109733 -0.013268276 -0.010394778

model.param_proj.proj.2.weight f4 [1, 40]
000000 41 d1 51 be 08 23 0d be aa 5c 91 be fc 16 89 3e
       -0.2048998 -0.13782895 -0.2839101 0.26775348
000010 f3 09 76 3e 7f 1a 61 3c 47 ed 8a be 27 a5 62 3e
       0.24027233 0.013739227 -0.27134153 0.22133313
000020 01 a7 7e 3e d4 61 85 be c2 35 5b be d9 4b 7f be
       0.24868394 -0.260512 -0.21407226 -0.24931277
000030 8f 64 4b bd eb 84 37 be ec 47 f0 bd 39 0d 95 3e
       -0.049656447 -0.17921798 -0.11732468 0.2911165
000040 72 59 85 be ea 37 84 3e 6b 3f 1f be 55 ad 1a be
       -0.26044804 0.2582391 -0.15551536 -0.15105183
000050 a7 10 6e 3e 54 e7 42 3d ab d1 6c be 57 af 8b be
       0.2324854 0.047583893 -0.23126857 -0.2728221
000060 b5 2f 9b 3e 65 9f 38 be c5 04 e5 bd 9d 2f 8d 3e
       0.30309835 -0.18029554 -0.1118255 0.2757539
000070 76 42 82 3e 41 1e 92 be a9 16 7a 3e 57 67 32 3e
       0.2544133 -0.28538707 0.24422707 0.17422234
000080 ea b7 67 3e bb 5f 92 3e a8 5f 70 be 53 d3 0f be
       0.22628751 0.28588662 -0.2347399 -0.14045458
000090 f8 51 61 be 93 16 6e be 68 d4 43 3e 02 84 7a 3e
       -0.22003925 -0.23250799 0.19123995 0.2446442

model.rnn.weight_ih_l0 f4 [160, 21]
000000 23 66 19 be 2b fc 50 3e 74 58 39 3d 27 8b 94 3c
       -0.14980368 0.20408694 0.04525037 0.01813276
000010 e9 6f 2f be b3 68 47 bd 12 22 ab 3d 8b 3c 7c 3d
       -0.17132534 -0.048683833 0.08356108 0.061581176
000020 3e 03 8b 3d 93 b5 6b 3e 86 47 ca 3d 60 cf 92 bd
       0.06787728 0.23018484 0.09876923 -0.0716846
000030 5d af c4 3c cf c1 ca 3c 0b 6c 43 3e 17 59 86 bb
       0.024009401 0.024750618 0.19084184 -0.004099976
000040 1c d2 92 3e 42 3a 14 3c 72 23 33 3e d0 0f 01 bd
       0.28675926 0.009047093 0.1749399 -0.03150922
000050 03 62 32 3e 18 15 ef bd 56 4b 98 bd 34 5a fb 3d
       0.17420201 -0.11673945 -0.07436244 0.12273064
000060 f2 95 e2 3d 6d c8 4e bc ad d3 a5 3d 51 aa 8c 3d
       0.11063756 -0.012621027 0.080970146 0.06868423
000070 37 59 c5 bc f7 42 2f 3c 1c 07 b1 bd 5c e6 3a 3e
       -0.024090393 0.010697118 -0.08643934 0.18251938
000080 17 11 1f 3c f3 5f 19 3e f9 e2 0a be 32 59 3d bd
       0.009708664 0.14978008 -0.13563146 -0.04622764
000090 8b be 14 bd 0c cd 95 3d 88 75 4d 3c 7f 5b 19 be
       -0.03631453 0.073145 0.012540229 -0.14976309
0000a0 f0 62 06 3e b3 2c 4a 3e 00 c2 00 bb 34 d2 95 bc
       0.13123679 0.19743614 -0.0019646883 -0.01828871
0000b0 fe 93 a9 3c 29 0c 0a 3b 0b 3d cd 3d 95 70 6f 3d
       0.020700451 0.0021064377 0.10021409 0.058456976
0000c0 ca 8f bf 3d b1 9d 05 3e 09 a1 3d bd 79 15 a4 3d
       0.093535975 0.13048436 -0.046296153 0.08011908
0000d0 13 83 01 3e 6e 62 2a 3d ae 80 a0 3c 4f 7d 72 bd
       0.12647657 0.041597776 0.01959261 -0.059201535
0000e0 0b 82 cb 3c 36 62 03 3d f3 93 41 3e 9c 1f 83 3b
       0.024842283 0.032076083 0.18904094 0.004001571
0000f0 44 ac 8e be cf ad eb bd d0 06 8b bd 72 bf d5 3d
       -0.27865803 -0.11507761 -0.06788409 0.10436906
000100 79 9f bf bd 2a 29 08 be 15 18 6f 3d 83 6d 24 3e
       -0.09356589 -0.13296953 0.058372576 0.160574
000110 00 54 d4 3c 05 86 17 be ea 59 13 be 43 3a 36 be
       0.02591896 -0.14797218 -0.14389768 -0.17795663
000120 eb c2 0d bd c1 44 9e bd 51 9e a3 bd 50 76 74 bd
       -0.034609716 -0.077279575 -0.07989181 -0.059683144
000130 1f d0 6b bb 78 d5 73 bd f7 ab c3 3c 78 18 da bd
       -0.0035982204 -0.05952975 0.02388571 -0.10649198
000140 69 75 07 3b 21 0c 5f be 0b 63 39 bc f9 d6 23 3e
       0.0020669347 -0.2178197 -0.011315118 0.15999974
000150 7c ac b4 3c a8 50 ac bd 45 f7 78 bd a5 80 80 3c
       0.022054903 -0.084138215 -0.06078269 0.015686342
000160 86 fd 15 be 89 34 85 3c 6f 8e f6 3d 29 58 d0 bd
       -0.14647493 0.016260402 0.12038886 -0.10173065
000170 ce 9b 16 3e 6e 0d 87 3d 89 a9 f3 3d 0e 5c a8 3b
       0.14707872 0.065943584 0.11897571 0.005137927
000180 d0 42 b2 3d 34 0f 45 3d ac 7a b1 3c fe 09 32 3e
       0.0870415 0.048110202 0.02166494 0.17386624
000190 85 fd 40 3e a9 79 74 bb ac 43 98 be 05 73 59 be
       0.1884671 -0.003730396 -0.2973913 -0.21235283
0001a0 44 cb 3b 3e 6b 77 09 3e ea 2b 93 3b 1b c8 61 3e
       0.18339258 0.1342446 0.004491319 0.2204899
0001b0 d2 99 20 3d 2d 3d 8a 3d 26 d2 38 3d 41 ea 4e 3e
       0.039209194 0.067499496 0.04512229 0.20206548
0001c0 35 13 3b 3e 85 d0 9b 3d 7b 62 25 3c d4 70 0b 3d
       0.18269046 0.07608131 0.01009428 0.03404315
0001d0 c0 7d 85 3d 04 53 f7 3c 24 b1 95 3d 53 d0 3e 3e
       0.065181255 0.030190952 0.073091775 0.18634157
0001e0 e0 0b e6 bc e4 42 6c 3d ce 3f 83 bb 3f e6 1e 3d
       -0.028081834 0.05768098 -0.004005409 0.0387938
0001f0 89 95 64 be 6d eb a1 3d c8 77 82 3d 37 72 a3 bd
       -0.22322668 0.07906232 0.06370503 -0.07980769
000200 1f 61 fb bc 7a aa 01 3d b9 ae 31 3e 4b 88 2a 3e
       -0.03068596 0.03165672 0.17351808 0.16653554
000210 4e 3b d5 b9 ac 9c 0c 3d fe 62 23 3e 16 e3 2c 3e
       -0.0004067071 0.0343291 0.15955731 0.16883501
000220 e6 37 4e 3e 28 ed b6 3d fe b4 1f 3e 7c 87 d6 bc
       0.20138511 0.08931953 0.15596387 -0.02618765
000230 81 d3 48 bd f5 f6 2d 3e ac 30 78 3e 12 e4 1f 3b
       -0.04902983 0.16988738 0.24237317 0.0024397415
000240 32 b2 34 3c 8e 1b 66 be 53 3b 11 3c ab 9c 97 bd
       0.011028813 -0.22471449 0.008864242 -0.07402929
000250 27 73 e4 3d ef 9f 94 3d ae 88 f0 3c c6 ab 81 be
       0.11154776 0.072570674 0.029362049 -0.25326365
000260 1e 44 6d 3c b4 cb cc bd 0d a2 1e be 3c cb 28 bc
       0.014481572 -0.09999791 -0.15491505 -0.010302361
000270 d1 a4 10 bd 82 63 1b 3e 96 47 46 be a8 b1 51 3d
       -0.03531343 0.15174678 -0.19363245 0.051194817
000280 e3 36 24 bc ed 08 72 3d 59 93 5d bd 47 75 88 3e
       -0.010022852 0.059090544 -0.0540956 0.26651976
000290 51 1c 16 3a f7 07 0f 3e 4f c1 2a be 03 d2 80 3e
       0.00057262654 0.13967882 -0.16675304 0.25160226
0002a0 53 5a e1 3d 2c 86 a4 bd aa 61 26 be 43 4a fe bd
       0.11003556 -0.08033404 -0.16248193 -0.12416508
0002b0 3a aa 15 3d 64 94 b6 bd 20 c6 c5 bd 2f f5 ad 3c
       0.036539294 -0.08915022 -0.0965693 0.021235077
0002c0 c5 45 15 be 72 4b b5 bd e7 52 52 3b 0f 36 ff 3d
       -0.14577396 -0.08852281 0.003209287 0.12461483
0002d0 1b fc 0e bc 30 ea 2f be 5b a6 7c bd aa a5 03 3c
       -0.008727099 -0.17179179 -0.061682086 0.008035103
0002e0 2e b1 a1 3d f3 e1 96 3b 2f 70 26 3e 6b 12 ae bd
       0.078951225 0.004604572 0.16253732 -0.08499607
0002f0 5e b7 0c 3e 1f d1 95 3d 3d ca a7 3b 14 fc 1c be
       0.13741824 0.07315277 0.005120544 -0.15330535
000300 c6 c6 35 3e 4d 35 3a bd 81 89 29 3e c6 0b dc 3d
       0.17751607 -0.045460988 0.1655636 0.10744433
000310 86 cd 81 bd 0a 0f 2f bb bf b7 21 3e d6 32 7b 3d
       -0.063380286 -0.0026711845 0.1579275 0.061327778
000320 00 06 ae 3d bd d4 cd bd 7d 7b 95 3d 71 aa df 3d
       0.08497238 -0.10050342 0.07298944 0.10921181
000330 a1 c0 4a bd d0 95 0d 3e a1 b7 09 3c b5 6f 18 3e
       -0.04950011 0.1382668 0.008405597 0.14886363
000340 9f 92 72 be ae 3b cc 3d 8d 47 5d be 1a e5 3a 3c
       -0.23688744 0.099723205 -0.21609326 0.011407161
000350 f9 d3 60 3d 81 bd 2d bc b9 bc 00 3e d2 ef d8 3d
       0.054889653 -0.010604263 0.12571992 0.10592617
000360 13 64 b3 3d f6 95 5f bd 70 ff 9c bc 9c 9e 09 bc
       0.08759322 -0.054586373 -0.01916477 -0.008399632
000370 34 76 06 be d4 19 55 3e db bf 9d bb c4 2f c1 bc
       -0.13131028 0.20810634 -0.0048141307 -0.023582347
000380 a0 f3 87 3d 19 d6 93 3d 5d 34 fc 3c 86 2d 9c 3b
       0.06638265 0.0721857 0.030786688 0.004766169
000390 5f cd 8b be 3d 72 fc bd d5 28 37 bc 19 f2 e5 3d
       -0.27305123 -0.12326477 -0.011179169 0.11227817
0003a0 b7 e3 2f 3b 91 7c b5 bd ac 17 16 3e b2 1b f9 bd
       0.002683861 -0.0886165 0.14657468 -0.121634856
0003b0 c4 a3 fd 3d 88 72 b4 3c 59 a4 7d 3d 28 3c 1a 3d
       0.123847514 0.022027269 0.061924312 0.037655026
0003c0 e5 55 46 be 64 d9 1d 3e dc 42 02 3d 88 9e 41 3e
       -0.19368704 0.15414959 0.031802043 0.18908131
0003d0 b4 f6 12 be 38 f6 88 3d 4a d7 06 bd 33 ba f4 bd
       -0.14351922 0.066875875 -0.03292016 -0.11949577
0003e0 32 58 17 3c 5a 51 91 bd b2 8f f8 3c 3e 2d ee bd
       0.009237336 -0.07095595 0.030341957 -0.11629723
0003f0 7e 29 6a 3e fd 3f 5f 3e c3 dd a3 3c ab 18 87 bd
       0.2286739 0.21801753 0.020003205 -0.06596502

model.rnn.weight_hh_l0 f4 [160, 40]
000000 d4 7a 43 3e 68 57 a0 bd c7 5d 87 3d fb d6 8b 3d
       0.19089824 -0.078291714 0.066096835 0.06828114
000010 ec 96 49 bd c3 c7 f5 3d 9d 00 4e 3e d2 81 40 be
       -0.049216196 0.12000992 0.20117421 -0.18799523
000020 e0 89 ea bd fc a1 19 be 72 81 5c bd 30 ae e4 3d
       -0.11452079 -0.15003198 -0.053834386 0.11166036
000030 dc 11 df bd 44 9c fc bd 2b af 20 3e d9 12 f5 bb
       -0.10892078 -0.12334493 0.15691821 -0.0074790535
000040 fa a0 77 bd 58 49 37 be b2 20 1a 3e 75 e8 1c 3d
       -0.060456254 -0.17899072 0.15051535 0.038307626
000050 fb b4 d0 bd 33 80 48 3e 1e 02 9a bd 78 49 94 3d
       -0.10190769 0.19580154 -0.07519935 0.072405756
000060 a7 f2 22 be 39 a5 e9 3d d8 75 af 3c 14 4b 85 3d
       -0.15912877 0.11408467 0.021418497 0.06508461
000070 45 0f ea 3d ae ce 7c 3d c5 fa 63 be a3 48 af bd
       0.11428694 0.061720543 -0.2226363 -0.08558776
000080 fb 7d b9 bd e0 5a 1b 3a e8 6f 05 3e 3c 69 1f 3e
       -0.09057232 0.0005926322 0.1303097 0.15567487
000090 bf d2 a2 3c 6b 11 53 bd 05 2b 19 3c 77 5f ca bd
       0.019875882 -0.051530283 0.009348636 -0.0988149
0000a0 cb 1d b7 bd de ab db 3c 6e 83 da bd 90 09 34 3e
       -0.089412294 0.026815351 -0.106695995 0.17581773
0000b0 8f 73 00 3d f1 b6 0b 3e 4a c2 06 3e ac 1f 65 3e
       0.031360205 0.13644005 0.13160053 0.22375363
0000c0 93 de 58 3e 57 e1 c0 3c ee 98 18 be 3c fb fb 3c
       0.21178655 0.02354495 -0.14902088 0.030759446
0000d0 d9 da d3 3d a4 a5 6d 3d 6a a9 1c be bb 16 26 3d
       0.10344476 0.058019295 -0.15299001 0.04054902
0000e0 07 f0 b9 bd 54 46 43 3e 91 b0 39 be 4a 1b c1 3d
       -0.09078985 0.19069797 -0.18133761 0.09429033
0000f0 cd 84 74 3e e8 2b 28 be 34 6f af bd 9f 74 d3 3d
       0.23878784 -0.16422999 -0.08566132 0.10324978
000100 0a c4 40 3e 6e b8 59 be e1 1b 37 3e cd 96 96 3c
       0.18824783 -0.2126176 0.17881729 0.018382454
000110 60 40 51 3c 2b 3e 0b 3e 88 9f 41 3e 54 6b 4d bd
       0.012771696 0.13597934 0.18908513 -0.050151184
000120 77 11 56 bc ab 94 0a bd de 48 a8 bd 8b 8b 5c 3e
       -0.013065687 -0.033833187 -0.08217023 0.21537606
000130 4e f0 a1 bc 90 64 d9 bd d0 d6 6b bd 97 87 95 3d
       -0.019767907 -0.10614884 -0.057577908 0.07301252
000140 3b f5 40 bd 79 4a 98 bd c6 47 8a bd 58 aa 87 3d
       -0.04710887 -0.074360795 -0.06751971 0.06624287
000150 72 cc eb bd b7 9a c1 3d 63 de 1e 3e 3f f5 4e 3e
       -0.11513604 0.09453338 0.15514521 0.20210741
000160 b8 8f 97 3d af b3 0a 3e 48 34 24 be 50 12 9d bd
       0.07400459 0.13545106 -0.16035569 -0.076695085
000170 32 32 14 be f7 0f 25 bd da ae 4e be 24 af 30 bd
       -0.14472273 -0.04029843 -0.20183888 -0.043135777
000180 df c2 53 bd a6 01 06 3e 1c 64 da 3a f8 3b 04 3e
       -0.051699515 0.13086566 0.0016661915 0.12913501
000190 ed bc 5c bd 1c b7 e8 bd e1 36 74 3d 62 77 db bd
       -0.05389111 -0.1136305 0.05962265 -0.1071613
0001a0 77 53 cb bd 6d 56 22 be 0d 88 da bd b6 94 91 be
       -0.09928029 -0.15853281 -0.10670481 -0.2843377
0001b0 88 e9 97 bd 91 93 24 3e 8b 49 6c 3e 8d 6e 1e 3d
       -0.074175894 0.16071917 0.2307493 0.03867965
0001c0 4e c2 01 bd 13 e5 d3 3c 55 a6 d8 bc 19 dd 6f 3e
       -0.031679444 0.025866067 -0.0264465 0.23424186
0001d0 17 08 09 be 4d 3a 00 be c3 2e 4c 3e f1 dc 59 bc
       -0.13381992 -0.1252224 0.19939713 -0.013297305
0001e0 50 a7 ed 3d 6f cc 8c 3d 6c 6e a3 bd 53 87 f5 bd
       0.11604178 0.0687493 -0.07980046 -0.11988702
0001f0 82 f8 1d 3e 14 d7 83 bc ce 38 bd bc 39 f6 98 bd
       0.1542683 -0.016093768 -0.023098376 -0.07468838
000200 4d 37 09 3e 8c d0 39 bd c4 78 7b bd e6 29 0b 3e
       0.13400002 -0.0453649 -0.061394468 0.13590202
000210 55 9f eb 3d 4b 7c 9f bb 63 6c 21 3e 0a b0 e1 bd
       0.115049995 -0.004867112 0.15764003 -0.11019905
000220 d3 0e 3c 3d d3 02 1a be 39 e5 21 3e 0b 17 cf 3d
       0.045912575 -0.1504014 0.15810098 0.10111817
000230 d1 27 80 3d cc be e8 3a 95 08 e6 3d 5e 9c 3c 3c
       0.062575944 0.0017757057 0.11232106 0.01151189
000240 e2 e8 d0 3d 22 c3 94 bd 3f 87 11 3e ab 5a 07 be
       0.10200669 -0.07263781 0.14211749 -0.13218181
000250 f8 dd 7e 3d 2d 8c 9c 3d 7c 74 e4 3c 6d 5e 86 bd
       0.062223405 0.07643924 0.027887575 -0.06560979
000260 45 44 11 be 0c 59 22 be f0 9b b2 3d a3 69 d3 bd
       -0.14186199 -0.15854281 0.08721149 -0.10322883
000270 68 3d b1 bd e4 d4 d8 bd b7 05 1f 3e 54 85 8f 3d
       -0.086542904 -0.10587481 0.15529524 0.07007852
000280 1b da 04 3e c2 43 44 be 99 15 2c be 17 7e 37 3e
       0.12973826 -0.19166473 -0.16805114 0.17919193
000290 e5 0a d5 bd 6c 27 0c 3d f6 f4 ad 3d 60 ca 6e bd
       -0.104024686 0.034217283 0.08493988 -0.05829847
0002a0 a8 d9 3d 3e 2c 90 06 be 9f e4 53 bc bb 74 3c be
       0.1854006 -0.13140935 -0.0129329255 -0.18403904
0002b0 95 71 7b bd df 8c aa 3c 7c 50 18 be 14 1b 93 3d
       -0.061387617 0.020819126 -0.14874452 0.07182899
0002c0 c4 cb ba bd 29 da 5c 3d de 10 0f be 6f 6e 0b 3e
       -0.091208965 0.05391899 -0.13971278 0.13616346
0002d0 eb c2 4c 3e cd 03 ab bd 44 a9 c7 bb 65 e8 4e bd
       0.1999623 -0.08350334 -0.006093176 -0.050514597
0002e0 2c 8c 8d bd e4 8a 82 3d 96 23 d2 bd 11 89 bd bd
       -0.06911501 0.063741475 -0.10260694 -0.09254659
0002f0 de e4 3a 3e 6b d3 b6 bc 1a a7 21 3e f3 63 ea bd
       0.18251368 -0.022317609 0.157864 -0.11444845
000300 d3 c9 a4 3d 23 08 00 3e 39 3c c8 bd 87 e8 84 bd
       0.080463074 0.12503104 -0.097771116 -0.064896636
000310 c6 93 2d 3d 56 63 1b be b4 a7 9a bd c6 9d ae 3d
       0.042377256 -0.15174612 -0.07551518 0.08526187
000320 8d a3 b5 ba b7 53 52 3d 74 0f 80 3d 0f 2c bd 3c
       -0.0013857946 0.051349368 0.062529474 0.023092298
000330 b9 a5 34 3e 9e e5 d4 bc 93 6d 38 3b 68 18 9a bd
       0.17641343 -0.025988396 0.0028141483 -0.075241864
000340 94 cf 17 3e 8d 88 f8 bd e9 0d ac bd cb 3c 33 be
       0.14825279 -0.1213542 -0.08401091 -0.1750366
000350 93 c6 ce 3c 2a 26 32 be b7 87 8d bd 06 74 8e bd
       0.025241172 -0.17397371 -0.06910651 -0.069557235
000360 7f 6e 17 3e b1 6e 9d bd 24 1e 64 bd 91 46 64 bc
       0.14788245 -0.07687128 -0.055692807 -0.01393284
000370 83 30 42 3e 59 eb 18 3e bf 41 5b be 47 f4 21 be
       0.18963818 0.14933528 -0.21411799 -0.1581584
000380 38 4c b7 bd 7f 67 e9 bd d3 7b e8 3d b8 3b 0d be
       -0.089500844 -0.113966934 0.113517426 -0.13792312
000390 0f f3 35 be 87 96 80 bd f3 66 c1 3d 2c 27 4a bd
       -0.17768501 -0.06278711 0.09443464 -0.049353763
0003a0 af a5 83 3d c4 c8 7f bc df d1 07 3e b2 ed 93 3d
       0.06428086 -0.015611831 0.13263653 0.07223071
0003b0 b0 d3 f5 3d 6b 88 95 bd c2 21 27 bc 05 26 47 3e
       0.12003267 -0.0730141 -0.01020092 0.19448097
0003c0 26 7c dc bd f0 86 ea bc f4 17 a2 3c bf 08 b2 bc
       -0.10765867 -0.028628796 0.019786812 -0.021732686
0003d0 d1 a0 e2 3c 01 e0 9e bd 7d 83 94 bd cb b6 29 3e
       0.027664574 -0.07757569 -0.07251642 0.16573636
0003e0 8d 92 1a bd c3 88 44 be 42 22 91 bd 62 26 25 be
       -0.037737418 -0.19192795 -0.07086612 -0.16127923
0003f0 89 49 99 3d b5 f7 64 bd 37 51 75 3d aa 97 36 be
       0.07484729 -0.055900294 0.059891906 -0.17831293

model.rnn.bias_ih_l0 f4 [160]
000000 a6 68 3a 3e 4d 18 81 3e 89 e5 30 3e a1 c3 b1 bd
       0.18203983 0.25213853 0.1727506 -0.086798914
000010 8e 76 f4 3d cd 81 51 3d bf 97 95 3d 91 25 34 3e
       0.11936675 0.05114918 0.07304334 0.17592455
000020 77 17 0e 3e db d6 f3 3c 00 42 6f 3e e6 79 41 3d
       0.13876139 0.029765537 0.23365021 0.047235392
000030 5e 08 06 3e 63 e1 5c 3c 90 26 0c bd 13 f7 f0 3d
       0.1308913 0.013481471 -0.034216464 0.11765876
000040 f6 a7 b4 3d b0 19 58 3d e3 6a 47 3e 41 bf 4c 3b
       0.088210985 0.052758873 0.19474368 0.0031241926
000050 09 49 33 3b 80 da 17 3e 71 23 83 3d b6 4b 76 bd
       0.0027356765 0.14829445 0.06403244 -0.060130797
000060 dd 01 d4 bd db 57 0e 3d 29 71 d9 3d 6a 1c f8 3d
       -0.10351918 0.034751754 0.10617287 0.121147946
000070 de 61 c7 3d 35 a1 fb bd 6a ff 8b 3e bf e8 b1 bb
       0.097354636 -0.12286607 0.27343303 -0.005429357
000080 f1 e9 67 3e 1c 59 20 3e 31 7b c2 3c 72 fd 86 3d
       0.22647835 0.15658993 0.023740383 0.065913096
000090 b1 2e ba bd 5d ec e6 3d 13 3f 2a 3e f3 63 42 3d
       -0.09090937 0.112755515 0.16625623 0.0474586
0000a0 c3 4f 70 bc 18 25 6a bd 07 2e 9f 3c b1 3e 3e bc
       -0.014667454 -0.05716428 0.019431127 -0.0116116265
0000b0 eb 7c 50 3d 4f 4d 4b 3e b8 8c d2 3d 8e f9 70 bc
       0.05090038 0.1985371 0.10280746 -0.014707936
0000c0 bc 47 0d 3e 03 ce 2e 3e 3b 97 c9 bd 14 1c 73 3d
       0.13796896 0.17070775 -0.09843298 0.05935295
0000d0 a8 60 c3 3c d8 d6 71 3d 45 ca e7 3d 36 e1 1f 3d
       0.0238498 0.05904278 0.11317877 0.039033137
0000e0 d5 86 8f 3d 17 b8 1f 3e 2d a9 d8 3d 53 4f 08 3d
       0.07008139 0.15597568 0.10579143 0.033278774
0000f0 9f 54 82 bd 2c 73 ae bd fb da b2 bd 33 4e c9 b9
       -0.063637964 -0.08518061 -0.087331735 -0.0003839597
000100 f8 5a 5a bd 18 bf 15 bb 48 29 1c 3e b8 02 a4 3d
       -0.05330941 -0.0022849496 0.15250123 0.08008331
000110 e2 5c f5 3d f1 25 de bd b3 21 2f bd 80 dc d4 3c
       0.119806066 -0.108470805 -0.042756747 0.025984049
000120 81 f4 9b 3d 0f 6d b8 bc cb 2c 11 3e 4c 3e be bd
       0.07614995 -0.02251294 0.14177243 -0.09289226
000130 9a 8d f2 bc 49 93 ff bd c1 d9 3e bc 13 3c 80 3d
       -0.029608537 -0.12479264 -0.011648596 0.06261458
000140 f5 26 19 be 52 1f ee bd f1 eb 70 bd e6 4b bc 3d
       -0.14956267 -0.116270676 -0.05881876 0.09194164
000150 55 42 27 3e 80 44 bf 3d 6e bf a5 bc 1c 7b 19 3e
       0.16333897 0.09339237 -0.020232882 0.14988369
000160 03 27 d3 bd 13 63 0f be 7d 00 db 3d 19 ce ae 3d
       -0.10310175 -0.14002638 0.106934525 0.08535404
000170 4f 64 b4 bd 7f 99 76 3d bd 93 f0 bc e6 3b e5 bc
       -0.08808195 0.06020498 -0.029367322 -0.027982663
000180 53 43 03 be 3f bc 7d bd 28 f7 a9 3d d1 59 cc 3d
       -0.12818651 -0.061947104 0.082990944 0.099780686
000190 06 35 32 3e a0 40 62 bd d0 f3 0d be c2 83 09 be
       0.1740304 -0.055237412 -0.13862538 -0.13429168
0001a0 ed 85 39 be ef b8 1b 3d 12 97 32 3d 52 43 2d bd
       -0.18117495 0.038018163 0.043601103 -0.04230053
0001b0 50 5b 81 bd af 6f 38 3e 9c 97 b0 3c 19 4b 74 3c
       -0.063162446 0.18011354 0.021556668 0.014910483
0001c0 67 f7 64 3d 5f 6e 23 3e a8 2d b6 3d b8 2b 17 3e
       0.055900004 0.15960072 0.08895427 0.14762771
0001d0 61 28 d0 3d f8 84 27 bd 63 2c a2 bd 0f 88 88 bb
       0.10163952 -0.040898293 -0.07918622 -0.00416661
0001e0 20 10 e2 bb 76 45 39 3e 88 58 e0 3d 94 1d 18 bd
       -0.006898895 0.18092903 0.10954386 -0.037137583
0001f0 0e 46 0a 3e 32 58 a1 3c 0c 1e 3e 3d 11 73 87 3d
       0.13503286 0.019695375 0.046415374 0.06613744
000200 b4 cd b2 3d b8 fc 08 3d 81 0d 25 3e 13 25 43 3d
       0.08730641 0.033444136 0.16118433 0.04764278
000210 d6 d3 e2 3d 2f ab cc bd 0a 8f 8f 3c 79 42 31 3e
       0.11075561 -0.09993588 0.017524261 0.17310514
000220 cd 8a d1 3d 48 02 5e 3e 90 63 84 bc 59 9f f5 bc
       0.10231552 0.21680558 -0.016160756 -0.02998321
000230 ce 34 50 3c 22 22 1d 3e a9 ca 86 bd 22 3c 33 bc
       0.012707902 0.15345052 -0.06581623 -0.01093963
000240 0c 92 0b 3e 44 ec e9 3d 92 c0 30 3e f7 d9 99 bc
       0.13629931 0.11422017 0.1726096 -0.018780692
000250 5d 90 a1 3d 65 3d 40 bd f2 2e 85 3e d4 b0 01 3e
       0.07888863 -0.04693355 0.2601238 0.12665111
000260 48 6c 04 3e 69 e3 ac bd 67 37 3b 3e 88 f3 96 3d
       0.12931931 -0.084418125 0.18282853 0.07370669
000270 5b bf 45 bd a8 54 2f 3e 36 f6 53 3e d6 ce 23 3e
       -0.048278194 0.17122138 0.20699391 0.1599687

model.rnn.bias_hh_l0 f4 [160]
000000 f9 d2 22 3e 99 45 29 3e c8 fb 18 3e be 2d 42 3e
       0.15900792 0.16530456 0.14939797 0.18962762
000010 e9 f4 a9 3c ef 48 06 3d 34 34 cf 3c a8 bf 67 3e
       0.020746665 0.0327844 0.025293447 0.22631705
000020 61 18 60 bd 8d 4d 56 bd a9 de 06 bd c9 94 fe bc
       -0.05471075 -0.052320052 -0.03292719 -0.031076806
000030 81 69 a3 3d 5f 14 1d bc 6a 4a b5 bd 3b 61 8c bd
       0.07979108 -0.009587376 -0.08852084 -0.06854483
000040 80 19 11 3d 59 09 06 be 44 be 09 3d e7 a2 20 3d
       0.03542471 -0.13089503 0.033628717 0.039217856
000050 87 38 22 3e 66 16 50 3c 85 a0 98 3d b6 6b 52 3d
       0.15841876 0.012700653 0.07452492 0.051372252
000060 a4 c4 c2 3d 7a 3a 73 3d a9 73 e3 3d e1 50 49 3c
       0.095101625 0.05938194 0.11106045 0.012287349
000070 85 90 35 bc 3d 6f f2 bd 5a 17 3b 3d 29 53 61 3e
       -0.011081819 -0.11837623 0.045676567 0.2200438
000080 58 46 86 3e f9 53 a3 bd 7c f1 60 3e 14 66 a0 3d
       0.26225543 -0.07975001 0.21967119 0.0783197
000090 79 7f dd bc c1 ea f2 3c 10 64 4c 3e f3 df d2 3d
       -0.027038323 0.029652955 0.19960046 0.10296621
0000a0 39 7e 03 3e 94 9f d0 bd 20 8d b6 bc 2c c9 9b 3d
       0.12841119 -0.10186687 -0.02228409 0.0760673
0000b0 c1 81 78 bd ff 51 62 3d ad ce 54 3e 35 9a 81 3c
       -0.060670618 0.05525398 0.20781966 0.015820602
0000c0 44 d8 b3 bd 19 24 fa 3d 80 c5 47 3e 68 31 84 3d
       -0.08781484 0.12213916 0.19508934 0.06454736
0000d0 55 bd ae bd 81 fe 19 be fb 86 14 3e 36 c8 0f 3e
       -0.08532206 -0.15038492 0.14504616 0.14041218
0000e0 d8 99 f2 bd 9c d6 b8 3d a4 a9 49 3e 03 61 79 bc
       -0.118457496 0.090253085 0.19693619 -0.015220883
0000f0 06 0a 27 3e 00 19 c9 bd 3a 55 22 bd b1 3c 99 3d
       0.16312417 -0.098192215 -0.03963206 0.07482279
000100 cf b3 38 3e bd 8b 1d 3e 50 3a 18 3d 54 ed 17 3e
       0.18037342 0.15385337 0.037164986 0.14836627
000110 72 29 ab 3d 98 ee cc bd 59 68 fe 3b d1 8b 8a bd
       0.083575144 -0.10006446 0.007763904 -0.06764949
000120 92 cf cf 3d e3 17 a8 3d 2b f7 70 3d 84 44 e6 3d
       0.10147013 0.08207681 0.058829468 0.11243537
000130 aa 63 e1 bd 38 40 42 bd 5c 68 5d bd 35 c9 c4 3c
       -0.110053375 -0.047424525 -0.054054603 0.024021724
000140 88 bd 6f bd ef 52 45 be 21 6c fe bd 75 b0 7c bd
       -0.05853036 -0.19269918 -0.12422968 -0.06169172
000150 07 86 df 3c b3 0e 13 3e 82 37 53 3e fe b9 04 3e
       0.027285589 0.14361076 0.20626643 0.12961575
000160 24 f7 be bd d9 c2 18 be e4 8a 19 be 92 eb 38 bd
       -0.09324482 -0.14918078 -0.14994389 -0.045146532
000170 25 4b 97 3d 46 25 50 be 5c 57 63 bc 30 d5 fb bd
       0.073873796 -0.20326719 -0.013875809 -0.12296522
000180 2f ed 00 3e da 4d 97 bd 6d d2 b5 bd de 51 da bd
       0.12590478 -0.07387896 -0.08878026 -0.10660146
000190 6f 99 81 3d 48 1d c7 3c 2c 8d 2b bd e5 79 c9 bd
       0.06328093 0.024305955 -0.04188268 -0.09837703
0001a0 5c 35 ed bd 29 f1 83 3d 16 65 3c 3d 12 b3 be bb
       -0.11582443 0.06442482 0.04599484 -0.0058196867
0001b0 4f 5c ad bd 26 48 80 bb 96 1c fe 3c 52 c3 66 bd
       -0.08464872 -0.0039148508 0.03101949 -0.056338616
0001c0 04 c5 d8 3d c2 3e a6 bc 35 5c 20 be 03 76 83 bd
       0.10584453 -0.020293597 -0.15660174 -0.06418993
0001d0 42 66 c9 3d 91 04 1c 3d 72 e9 fd bc 6a bd c7 bd
       0.09833957 0.038090292 -0.030995104 -0.09752925
0001e0 38 fe ba 3d 39 fd 28 3e 1d 8d 98 bc 41 95 12 bd
       0.0913052 0.16502847 -0.018621976 -0.03578687
0001f0 22 ea c8 3d 22 41 f7 3d 80 7a 73 bd 76 10 db 3c
       0.09810282 0.1207297 -0.059442997 0.026741248
000200 c3 70 7f 3e 02 64 73 3d 69 22 51 3e 44 83 76 3d
       0.24945359 0.059421547 0.20423283 0.06018378
000210 e8 ba 02 be 69 b2 bd 3d 62 3b 77 3e 0b 36 e0 3d
       -0.12766612 0.09262545 0.24143746 0.10947808
000220 9b 81 92 3a 6a c5 a4 3d 1e 97 29 3e 49 90 18 be
       0.0011177541 0.08045466 0.16561553 -0.1489879
000230 9a 14 5d 3e fa fd 0b 3e 02 1f e1 3d a0 d5 0e bd
       0.2158989 0.13671103 0.109922424 -0.034871697
000240 36 fe ed 3d a8 40 ec 3d e1 38 5f bd cf f3 a7 bd
       0.116207525 0.1153577 -0.054497603 -0.082008
000250 9f 15 fa 3d df 3c 2a 3c 99 7b 69 3e b4 09 12 3e
       0.12211155 0.010390489 0.22801055 0.14261514
000260 34 2c 2e 3d e3 3d 63 bc 7a 4c 78 3d 94 14 be bb
       0.042522624 -0.013869735 0.06061981 -0.005800793
000270 72 86 cc 3d a6 91 22 3e 69 9a fd 3d 31 e4 d5 3d
       0.09986581 0.15875873 0.12382967 0.10443915

model.rnn.weight_ih_l1 f4 [160, 40]
000000 de 70 00 be eb d3 3d bd 07 4d 29 3d af 43 3e 3d
       -0.12543055 -0.04634468 0.041333225 0.046451267
000010 02 d6 09 3e 38 d3 5d 3e d3 1b 9f 3d 43 2a 84 3d
       0.13460544 0.21662605 0.07768979 0.06453373
000020 b9 30 b6 3d 2e 2a d1 bd e2 27 06 be 0a 6b 39 be
       0.08896012 -0.10213123 -0.13101152 -0.18107238
000030 49 50 c9 bd 3b de ba 3b 67 56 e1 bd 8e 3e 44 3d
       -0.09829766 0.0057027615 -0.11002808 0.04791122
000040 5f e6 c5 3d af 21 f1 3d 2a 84 22 be c8 55 38 3e
       0.096630804 0.11774003 -0.15870729 0.18001473
000050 cc 09 cb 3c 15 e2 30 3e 98 4e 70 be a1 9d 0f bc
       0.024784945 0.17273743 -0.23467481 -0.008765609
000060 9f 5b 02 3d 95 80 14 bd 8c 93 ee bd 87 f6 80 3d
       0.031825658 -0.036255438 -0.11649236 0.06297021
000070 e7 1c a9 3d 25 1f 19 3e ac 66 86 bd ec b9 b7 3d
       0.08257466 0.14953287 -0.06562552 0.08971009
000080 69 ed 0a 3e c0 27 a0 3d ae 67 aa 3a a7 b0 f9 bd
       0.13567127 0.07820082 0.001300087 -0.12191897
000090 c8 e0 1e 3e 59 0f 80 bc 0e 8f 97 bc 8c f0 fd 3d
       0.15515435 -0.015632318 -0.018500831 0.12399396
0000a0 a8 3c c9 3d 34 81 e5 bc d1 5a de 3d 96 c7 89 bc
       0.098260224 -0.02801571 0.108571656 -0.016818803
0000b0 96 8c e7 3d ca 73 bc 3d d3 40 ca 3d 72 f2 2a 3c
       0.113061115 0.092017725 0.098756455 0.01043378
0000c0 d2 b1 59 3b a5 e8 bd bd 62 50 f7 3d ff a0 e6 3d
       0.0033217561 -0.09272889 0.12075879 0.11261176
0000d0 70 a4 0b bd 48 42 86 3d 59 60 4c bd b7 43 23 be
       -0.034092367 0.06555611 -0.04989657 -0.159438
0000e0 7f 75 a1 bd 04 6a c8 bc 65 e1 c1 bc 0b b3 82 3d
       -0.07883739 -0.024464615 -0.023667047 0.06381806
0000f0 41 19 7b 3d f8 29 95 3b d0 ce fe bd cb df 17 3e
       0.06130338 0.004552122 -0.1244179 0.14831464
000100 e5 30 2d be 1b 83 d9 3d 4a 19 5a 3d 1f 51 58 bd
       -0.16913183 0.106207095 0.053246774 -0.052811738
000110 c9 a2 d1 3d 7d f1 33 3e 89 88 2d be 5f 3d 05 3e
       0.10236127 0.17572589 -0.16946615 0.13011692
000120 35 5c f0 bc a6 e0 78 bd 99 8c 2b 3d 1e e4 73 3d
       -0.029340843 -0.060761116 0.04188213 0.05954372
000130 63 f0 b2 3d 73 67 b7 bc af a9 51 3d 6d 40 40 3d
       0.087372564 -0.022388196 0.051187214 0.04693644
000140 5d a4 1c be b8 e4 ee bd bc 44 34 3c 5a 5f 1b 3e
       -0.15297075 -0.116647184 0.011002716 0.15173092
000150 70 ee 67 3e b7 1d 2b 3e 08 7f f2 3d 23 89 7c 3d
       0.2264955 0.16710554 0.118406355 0.06165422
000160 c2 72 8a 3d 20 1b 01 be 28 9f ec bd 28 9b d3 bd
       0.067601696 -0.12608004 -0.11553794 -0.10332328
000170 4a be d4 bd f8 9f c9 3d e6 e1 be bd d6 d9 84 3e
       -0.10387857 0.09844965 -0.093204305 0.25947446
000180 ff f9 c2 3d 8d 8b 92 3e 5c 90 31 bd 82 cf 3d be
       0.09520339 0.28622094 -0.043350562 -0.18536189
000190 7f 67 10 3e ca 2d 46 3c 20 18 2f be ca be 8d bb
       0.1410198 0.012095878 -0.17099047 -0.0043257223
0001a0 ce ce 9e 3d 70 a3 87 be d3 53 9d 3e 31 ef 0f be
       0.077542886 -0.2649188 0.30728015 -0.14056088
0001b0 5c c4 38 bd ff 4c 4b 3e 9f c7 b7 3e 36 b3 25 be
       -0.045109138 0.1985359 0.35894486 -0.16181645
0001c0 39 15 34 3e 67 64 45 bd 68 4f 40 be 6c a9 a5 3e
       0.17586221 -0.048191454 -0.18780291 0.3235582
0001d0 28 41 73 bd f8 fc 4b be 4f a0 05 3e c9 62 bb 3e
       -0.05938831 -0.19920719 0.13049434 0.36598805
0001e0 8a eb 16 3e bc 14 29 be f2 91 92 bd 91 cb 26 3e
       0.14738289 -0.16511816 -0.07156743 0.16288592
0001f0 d3 80 fc 3d a6 33 87 3e 34 2a 03 3e 9e 1e 41 bd
       0.12329259 0.26406592 0.12809068 -0.04714834
000200 b8 61 0c be c1 35 66 be e9 ed 17 be 3d 73 5d be
       -0.13709152 -0.22481443 -0.1483685 -0.21625991
000210 e3 57 f0 3b 6d 2a 35 bc b7 29 04 be 49 e0 41 bd
       0.0073346957 -0.011057478 -0.12906538 -0.047333036
000220 19 c9 8f bd bc ae 63 bc c8 9a 07 be 78 99 4e 3e
       -0.07020778 -0.01389664 -0.13242638 0.20175731
000230 81 0f 34 bd 5d b8 58 3e 32 e5 27 be c4 c8 3d be
       -0.0439601 0.21164079 -0.16396025 -0.18533617
000240 37 f7 21 be 57 fc 43 3e b0 49 66 bd 2a f4 6a bd
       -0.15816961 0.19139229 -0.056222618 -0.05736176
000250 3f 8c cd bd 57 e2 9d 3d 53 da 54 3e 8e 40 e8 3c
       -0.100365154 0.077091865 0.20786409 0.028351095
000260 5b cb 82 3e 81 af 8c 3e e4 59 ce bd 7a 81 3e be
       0.25545773 0.2747765 -0.10075739 -0.18604079
000270 d4 12 44 bd b7 0c f5 bd c6 12 08 3c dc 4d 10 3e
       -0.04786952 -0.11965316 0.008305257 0.14092201
000280 fc ad a7 bd 3e 2b ab bd c2 e1 05 be 3c 4e 2b 3e
       -0.08187482 -0.08357857 -0.13074401 0.16729063
000290 0f 52 20 3e bc 1f b0 3d bc 29 36 3e 32 e1 bc 3d
       0.15656303 0.08599803 0.17789358 0.0922264
0002a0 2b 8a 90 3d 39 7f 70 be 2b f6 27 be fc 91 2f be
       0.070576034 -0.23486032 -0.164025 -0.17145532
0002b0 cf a2 2f be 0c 44 9f be bd 98 08 be d2 7b a4 3d
       -0.1715195 -0.31106603 -0.13339515 0.08031429
0002c0 91 40 2f 3e f8 c1 79 3d 94 4d 4e be 6a 3f ab 3d
       0.17114474 0.060976 -0.20146781 0.08361705
0002d0 82 a9 e6 3d 7e e0 da bd 5b 97 a5 bd 7f b9 11 be
       0.112628 -0.1068735 -0.080855094 -0.14230917
0002e0 88 8c c2 3d 85 7e 03 3d 2d 26 06 bd d9 71 64 be
       0.094994605 0.03210308 -0.03275125 -0.22309054
0002f0 21 ac 55 bd 9a 0f 67 3e 58 7e 28 3e eb 0f 3c be
       -0.052166108 0.22564545 0.16454446 -0.18365447
000300 6a f3 27 3e d0 7b 25 3e 37 41 bb bd ee 6a 3f 3e
       0.16401449 0.16160512 -0.09143298 0.18693134
000310 61 4a 1f bd 82 26 dc bd 35 83 58 3e 67 7f 44 3e
       -0.038889293 -0.10749532 0.21143802 0.19189225
000320 e2 51 c4 3c c0 c9 ba 3b 06 b6 15 3e d0 1e 32 be
       0.023964826 0.00570032 0.14620218 -0.17394567
000330 38 c0 6e bd 96 16 d8 bd 40 6b 74 bd 88 96 8b 3d
       -0.058288783 -0.10551183 -0.059672594 0.06815821
000340 b3 77 5f 3d 74 db 8f 3c 43 07 45 3e 31 ee b9 3d
       0.054557513 0.017560698 0.19241051 0.090786345
000350 a0 6e 87 3d ea 1f b7 3d e0 a2 5d bd 59 fb bc 3d
       0.06612897 0.08941634 -0.054110408 0.09227628
000360 00 d3 db bd 18 c5 6c bd 9c fe fa bc 07 28 a0 3c
       -0.107336044 -0.05780515 -0.030638985 0.019550337
000370 a7 05 df bd 8e 43 06 be e4 a4 c7 3d b5 85 42 bd
       -0.1088975 -0.13111708 0.09748247 -0.047490794
000380 77 92 56 3e df 9e 35 be 18 a3 55 bd 73 b4 81 bd
       0.2095431 -0.17736386 -0.05215749 -0.06333246
000390 f4 68 dc bd 98 e2 3a bc 77 95 0a 3d 96 53 01 3e
       -0.10762206 -0.011406563 0.033833947 0.12629542
0003a0 90 a4 17 3e 7f 9a 8e 3d 47 83 e1 3b 24 64 81 3e
       0.1480887 0.069630615 0.0068821046 0.25271714
0003b0 d7 c7 4d bc 5f dd 1a 3e f1 04 24 be 02 93 6a 3d
       -0.012559853 0.15123509 -0.1601751 0.057269104
0003c0 3b 30 92 bd 5e e8 4c be 3a f2 e6 bd 6d 23 93 3d
       -0.071381055 -0.20010516 -0.1127667 0.07184491
0003d0 b5 25 e8 3b fe 47 ca bb 36 b0 5b 3e 66 dc 0c 3d
       0.007084573 -0.006173133 0.21453938 0.034389876
0003e0 60 60 a0 bc 30 ab f0 bd e3 1c a3 3a e1 87 14 bd
       -0.019577205 -0.117514014 0.0012444522 -0.036262397
0003f0 1a 41 d6 3c 0b 83 0e be f7 0b 77 be 53 8f d1 3d
       0.02615409 -0.13917176 -0.24125658 0.10232415

model.rnn.weight_hh_l1 f4 [160, 40]
000000 b1 01 99 3d 43 5e bb 3d f3 31 95 bd e2 f4 a1 3d
       0.07471026 0.09148838 -0.07284918 0.07908036
000010 33 31 98 3c 9c 4e 27 3a 6a cd 95 3d 87 65 20 bd
       0.018578148 0.0006382258 0.0731457 -0.039159324
000020 35 cf d7 3b b8 1b 13 3e b8 9d 7d bd 2b 1c 2d 3e
       0.0065859803 0.14366043 -0.06191799 0.16905276
000030 13 69 31 3e 42 c3 dd 3d 75 4d 92 bd 31 46 4f be
       0.17325239 0.10828258 -0.0714368 -0.2024162
000040 d4 9a 17 bc 91 27 3a be 7e 50 0f bd db 57 1f 3e
       -0.0092532225 -0.18179156 -0.034988873 0.15560858
000050 51 85 8e bd 96 1d 1d bd 72 ea 6b bd 92 89 83 bd
       -0.06959022 -0.038358293 -0.05759663 -0.06422724
000060 d9 07 65 3d 28 aa 3b 3e dd 0d c7 3d db 1e 60 be
       0.055915687 0.18326628 0.09719441 -0.2188677
000070 f5 5e 6a be 1d 27 36 3e 41 08 ee bd 64 e6 61 be
       -0.22887786 0.17788358 -0.11622668 -0.22060543
000080 e4 4d 27 3d df 67 e7 bd ec f2 36 3e e2 ff 41 3e
       0.040845767 -0.11299109 0.17866105 0.18945268
000090 00 04 11 3e 1b 81 ff 3d 48 24 14 be 2c b3 01 bb
       0.14161682 0.12475797 -0.14466965 -0.0019790633
0000a0 fa 1e b3 3d 9b cf 8c 3d 09 57 09 be cd d7 fa 3d
       0.08746143 0.06875535 -0.13412108 0.12248192
0000b0 f7 c6 ed bd 74 86 b2 bd 0a d6 c5 bc b2 5d 97 bd
       -0.11610215 -0.08717051 -0.024149913 -0.07390918
0000c0 9a 38 ec bc e8 84 ef 3c 3b 9a b8 3d 37 26 37 be
       -0.028835583 0.02923818 0.09013792 -0.17885672
0000d0 d3 fc c2 3c 0d 68 02 be a2 9b 36 bc 91 41 4f bd
       0.023802197 -0.12735005 -0.011145504 -0.05059964
0000e0 36 a0 c4 3d 42 73 09 3e 7a 5d 0d 3e 7a 94 a6 bc
       0.0960087 0.13422874 0.1380519 -0.020334471
0000f0 84 59 ab bc 3a 86 7d bd ab 0d a1 3b 82 98 02 be
       -0.020916708 -0.061895587 0.0049149594 -0.1275349
000100 a4 36 eb 3d f1 01 18 be 1c 2b 09 bd d3 81 ce bd
       0.11485031 -0.1484449 -0.033488378 -0.10083356
000110 d1 8d 7e bd 11 c3 14 bd f0 c0 05 be f1 ee 9e 3d
       -0.062146965 -0.036318842 -0.13061881 0.07760418
000120 2b 59 07 be ed 59 c5 bd 9c 5a f5 bd b9 d4 2d bd
       -0.13217609 -0.096362926 -0.11980173 -0.042439196
000130 7d 33 0b bd 14 10 12 3c 1e 35 14 3e f7 89 7c bc
       -0.03398465 0.008914966 0.14473388 -0.015413753
000140 5d 01 42 3c c7 18 77 3e 25 26 4f 3e 4b 96 1d be
       0.011841145 0.24130546 0.20229395 -0.15389363
000150 d3 3f f8 bd 2d 47 59 bd 2a eb 35 bd df 61 44 be
       -0.121215485 -0.053046394 -0.044413723 -0.1917796
000160 c7 0f 5c be 61 bf 58 3d 36 d7 f6 3c 1a 36 a9 3d
       -0.21490394 0.05291689 0.030131917 0.08262272
000170 30 40 fc bd 19 81 f9 3d f7 73 21 bd 85 16 df bd
       -0.1231693 0.121828265 -0.039417233 -0.10892967
000180 b8 13 81 3e 34 76 c0 bd b2 d8 90 3d 63 de 03 3e
       0.25210357 -0.093975455 0.07072581 0.12877803
000190 49 01 2c be 4e c9 60 3e 17 28 5c 3e 00 7a 14 3e
       -0.16797365 0.21951792 0.21499668 0.14499664
0001a0 0d cf 49 3d c3 5c 24 3e 13 52 db bb 70 c4 b1 3c
       0.049269725 0.16051011 -0.0066931336 0.021700114
0001b0 14 d8 cc bd c0 b7 c8 3d 6d 0d 3c bd 2a 0e 2f be
       -0.10002151 0.098006725 -0.04591124 -0.17095247
0001c0 ac c1 18 be 20 74 5b 3c dd b6 0c 3d a6 43 0d 3e
       -0.1491763 0.013394386 0.03435408 0.13795337
0001d0 4d ac 67 be e0 5c 48 3e c1 9a 91 3c 7c 8e c5 bd
       -0.22624321 0.19566679 0.017773988 -0.09646317
0001e0 01 82 ea ba 47 fc 30 bd 7f 55 c2 3c 3a 5d 95 3d
       -0.0017891527 -0.04320934 0.023722408 0.07293172
0001f0 c5 1b 4c be 91 10 02 be 08 62 fe 3a e5 ed a3 bd
       -0.19932468 -0.12701632 0.0019407878 -0.08004359
000200 e1 76 31 be 76 2d 1e 3d 7f df 58 3e 46 10 e0 bb
       -0.17330505 0.038617574 0.21179007 -0.0068378774
000210 2d 35 42 3e a9 3e f8 bc f8 4e 28 3d f8 8c c1 bd
       0.18965597 -0.030303316 0.041090935 -0.09450716
000220 ff e0 ce 3d cb 79 30 bc 70 ec 58 3c bf a1 1d 3e
       0.10101508 -0.010771225 0.013239965 0.15393732
000230 e2 3b e0 bd bc a8 3d be 8d e9 b0 3c d6 2f 04 3e
       -0.10948922 -0.18521398 0.02159574 0.12908873
000240 34 14 4f be c4 1d 2c 3c a2 e5 48 3e e0 31 10 be
       -0.2022255 0.010505144 0.19618848 -0.14081526
000250 69 98 9a bd 34 51 25 3e e9 5d 74 3d 52 56 b8 3b
       -0.07548601 0.16144258 0.059659872 0.0056255246
000260 27 df 66 bc 54 7c 3c be cd f4 b5 bd 07 41 b5 bb
       -0.01409129 -0.18406802 -0.08884583 -0.0055314335
000270 3c 15 ca 3d 3b 33 09 bb 25 05 6f bd 68 55 94 b9
       0.098673314 -0.0020935077 -0.058354516 -0.00028292392
000280 e4 8e 17 3d f2 75 cb 3d 19 24 ea 3d cf 1f ee 3d
       0.037001505 0.09934606 0.11432666 0.11627161
000290 ae 4c 88 3d ae c0 86 3c 71 e8 e3 bd 09 a7 87 bd
       0.066552505 0.016449299 -0.11128319 -0.06623656
0002a0 8f 02 2b be 0b 08 75 bd 00 3c 65 3d 68 69 47 3e
       -0.16700195 -0.059822123 0.055965424 0.19473803
0002b0 17 5b 5b 3e 64 a7 1d 3e f6 01 86 3d 7f a1 3f 3d
       0.21421467 0.15395886 0.06543343 0.046784874
0002c0 5f 98 db 3d 47 37 2e be 0c 06 be bc f0 40 28 3d
       0.10722422 -0.17013274 -0.023196243 0.041077554
0002d0 83 14 bd bd 36 ec a5 3d e2 88 0b 3d 8b d5 b7 3d
       -0.09232428 0.08101694 0.03406609 0.08976277
0002e0 d2 49 bc 3d cf e5 0a 3e 27 0f f4 bc a2 5a 37 be
       0.091937676 0.13564228 -0.029792381 -0.17905667
0002f0 3f e9 9b 3d fb ef 4c bc dd e7 b5 bd ad 03 40 bd
       0.076128475 -0.012508388 -0.08882115 -0.046878505
000300 3f 6b 8d bd 28 c3 d7 bd a4 d7 5a 3e b8 6d 41 3d
       -0.06905221 -0.1053527 0.21371323 0.047223777
000310 6e 0c 5a 3e dd a0 5e 3e 48 3c 70 be b7 c7 e1 3d
       0.21293804 0.21741052 -0.23460495 0.11024421
000320 42 c2 56 bd 99 32 42 bd 66 88 17 be 6b 1b 2b 3d
       -0.052431352 -0.047411535 -0.14798126 0.041774195
000330 0c 2f 50 bb 1f 6d 74 bc 13 62 de 3d 3d 97 8e 3d
       -0.0031766323 -0.014918595 0.1085855 0.0696244
000340 1f 0c aa 3d 6b c5 04 bc 0a f6 0c 3d 41 fb c5 bd
       0.08303093 -0.008103709 0.03441433 -0.096670635
000350 47 f8 af 3d 2c d0 c6 3d 8b 7f 96 bd 5e b6 73 3d
       0.08592277 0.097076744 -0.07348546 0.05950009
000360 c7 c0 13 bd a5 c4 0a be a9 47 f4 3d f0 56 0a 3e
       -0.03607252 -0.13551576 0.119277306 0.13509727
000370 e6 cc fa 3d 3b e5 42 bc 6a d9 df bd d6 ee 99 bd
       0.122461125 -0.011895473 -0.1093014 -0.075162575
000380 21 7b d0 3d e2 7a fc bc 62 46 df bd cc 62 19 3e
       0.10179735 -0.030820314 -0.10902096 0.14979094
000390 93 0b 48 3d bb ca b7 bd eb 9c 38 bd 9c 59 a0 3d
       0.048839163 -0.08974215 -0.045071524 0.07829592
0003a0 d9 4d 95 3d 4f d1 32 3d 5b d5 02 3e 00 00 8f bd
       0.07290239 0.043656643 0.12776701 -0.06982422
0003b0 70 03 71 bd 67 b4 da bc 86 ff dd 3d a3 ce e0 bc
       -0.05884117 -0.02669735 0.10839753 -0.027442282
0003c0 b8 a9 1b 3e 24 cb a1 3d 01 fa 36 3d 88 56 b9 bd
       0.15201461 0.07900074 0.044672016 -0.09049708
0003d0 41 57 e7 3b 4c 52 54 bd 70 7e 2b 3e 2a ee ff bd
       0.007059962 -0.051836297 0.16747451 -0.12496598
0003e0 d6 f4 ec bc c1 00 a4 3d 8d 51 b2 bc f3 c3 c9 3d
       -0.02892534 0.08007956 -0.021767402 0.098518275
0003f0 e5 c7 e6 3d 06 2d 28 3e a6 cb b6 3d 7b 1f b7 3d
       0.112685956 0.16423425 0.089255616 0.08941551

model.rnn.bias_ih_l1 f4 [160]
000000 4f b0 13 3e 7f c5 cc 3c cf ba c8 3d 57 5a 32 3c
       0.14422725 0.024996517 0.09801256 0.0108857965
000010 e2 ec 76 3e 85 0a 38 3c dd 2a b6 3d 94 3c a4 3c
       0.24113801 0.011232977 0.08894894 0.020048417
000020 f2 25 a2 3e 1f 54 33 bc 8e ee 5f 3c 1b ca 2c 3e
       0.31669575 -0.010945349 0.013667716 0.16873972
000030 20 6e 04 be 02 3d 88 3d b1 f4 54 3d c2 6b d3 3d
       -0.12932634 0.06652261 0.05199117 0.103232875
000040 b4 fe 17 3d 3c 3f 1b 3e d1 c9 10 3d e9 95 05 3e
       0.03710814 0.15160841 0.035348717 0.13045467
000050 a0 b9 e4 3d 95 93 86 3d 57 5d 1f 3e de c1 06 3b
       0.11168218 0.06571118 0.1556295 0.0020562331
000060 1d 29 f6 3d bf a7 b9 3d 61 66 4d 3d e1 2e a4 3d
       0.120195605 0.09065198 0.050146464 0.08016754
000070 07 30 0c 3e 31 49 49 3d 73 8f 18 3e 1e 8b 0b 3e
       0.13690196 0.049142066 0.14898472 0.13627288
000080 7a c3 28 bd 31 5a 08 3e c9 e4 85 3d 2c de 7e 3e
       -0.041202046 0.13315655 0.06537778 0.2488944
000090 98 ad 07 3e 83 ad 3e 3d fc 3d b8 3d a3 7e 34 bd
       0.13249815 0.046552192 0.089961976 -0.044066083
0000a0 ea 16 83 bd a2 d2 30 be 6b f9 0b 3e a1 c1 0c ba
       -0.06400855 -0.1726785 0.13669364 -0.0005369429
0000b0 4d a8 a2 3d c8 87 c1 bd a8 d4 15 3e 2e a7 9d 3d
       0.07942257 -0.09449726 0.14631903 0.076979026
0000c0 ec 9d 18 3e cb 58 0d 3e d7 c2 a1 3c 8f 70 ce ba
       0.14903992 0.13803403 0.019746227 -0.0015750098
0000d0 fc db cc 3d 27 86 7e 3d 91 10 06 be 09 ea 64 3d
       0.10002896 0.062139656 -0.13092257 0.055887256
0000e0 be fa 01 3e 04 97 ef 3d 5d 1f b2 3d 45 74 e4 bd
       0.12693307 0.11698726 0.08697388 -0.11154989
0000f0 26 19 df 3c 48 71 b9 bd 8e 4d 90 3d 39 d9 dc 3d
       0.027233671 -0.0905481 0.070460424 0.107836194
000100 f5 fd 2e 3e a2 2b 85 3d da 4c fe bd 1d 8d 28 3a
       0.17089064 0.06502463 -0.12417002 0.0006429719
000110 06 3c 9d bc 32 d3 c3 bd e4 4f 7a 3d 92 99 97 3d
       -0.01919366 -0.09561767 0.061111346 0.07402338
000120 88 00 b3 3d 3d c5 d5 bb 12 14 f1 bd 5c 5f dd bd
       0.08740336 -0.006523757 -0.11771406 -0.10809204
000130 ed 0d a8 bd ab 86 ab 3d e6 76 bc 3d 71 8f 0a bd
       -0.08205781 0.08375295 0.092023656 -0.033828203
000140 27 05 20 bc 09 08 2a 3d 86 57 cb 3d 81 63 84 3d
       -0.009766853 0.04151157 0.09928803 0.06464291
000150 d1 04 9c bd db 0e 19 bd 80 01 b8 3c 13 0f 29 be
       -0.07618106 -0.037367683 0.022461653 -0.16509657
000160 39 b9 34 be 2f eb b2 3d cb 3d 63 bd 7a 5e e1 3d
       -0.17648782 0.08736264 -0.055478852 0.11004348
000170 8f 26 21 3e 96 8b bf bc 22 af 85 bd 9a e1 92 3d
       0.15737365 -0.02338199 -0.065275446 0.07171936
000180 cc a2 3b 3b c9 97 79 3d 12 b5 b6 3d 2c 6a 90 3d
       0.002863097 0.06093577 0.08921255 0.07051501
000190 57 29 91 bd f9 ec 71 bd 86 85 41 3e 26 c9 20 3e
       -0.07087963 -0.059063885 0.18898591 0.15701732
0001a0 84 38 f6 bd c7 1f 1b 3e f2 43 e0 3d 3e 5b 58 be
       -0.12022498 0.15148841 0.109504595 -0.21128556
0001b0 ea 62 d9 bc 51 59 52 bd 5f 7a 94 bd 26 ee 56 be
       -0.026536424 -0.05135471 -0.07249903 -0.20989284
0001c0 3b 91 a4 3c 7f aa 22 be 72 a6 26 3e 3c ee 6e 3e
       0.020088783 -0.15885352 0.16274431 0.23333067
0001d0 2c 3c 24 bd 28 3c 78 3b 2d 5f b1 bd 72 05 fd 3c
       -0.040096447 0.0037877653 -0.086607315 0.030886386
0001e0 c8 43 cc 3d 7d 96 ba bb 23 e8 0b 3e 42 ce 49 3e
       0.09973866 -0.005694209 0.13662772 0.19707587
0001f0 a1 48 bf 3d 3f 7a 00 3e 2d 22 51 3c 52 65 d0 bd
       0.09340025 0.12546633 0.012764496 -0.10175575
000200 17 3c 63 3e 23 3e 3a 3d 08 ae ec 3d e2 2f 1d 3d
       0.22190891 0.045469414 0.11556631 0.038375743
000210 8b 17 cc bc 5a f0 89 3d 79 9f a7 3d d5 1b 0e 3e
       -0.02491357 0.067352965 0.08184714 0.13877805
000220 04 1b ee 3d 2d 12 8b 3e 44 3e e5 bd d2 8f d3 3d
       0.116262466 0.27162305 -0.11193517 0.10330166
000230 75 50 67 3d d5 80 10 be 9f ba 95 bd 67 5b a4 bd
       0.056473214 -0.14111646 -0.07310986 -0.08025246
000240 a2 1d 10 3e 35 74 eb bc 22 f4 09 3e 47 1c c6 3b
       0.14073804 -0.028741935 0.13472036 0.0060458514
000250 11 36 60 3e e9 22 fc bc 13 3c ab 3c a2 a9 3a 3d
       0.21895625 -0.030778365 0.020902669 0.04557193
000260 d4 20 05 be 0b 46 5a 3e 15 d4 b4 3d 03 b7 a2 3d
       -0.13000804 0.21315782 0.08829514 0.07945063
000270 4c 38 1c bc 62 83 55 bd 2a 8e 5a 3e d5 91 a6 bd
       -0.009534907 -0.05212725 0.21343294 -0.08133284

model.rnn.bias_hh_l1 f4 [160]
000000 5a 56 68 bd 4b dd 5b 3c e6 f7 11 3e 43 11 cf bc
       -0.056722976 0.01341946 0.14254722 -0.025276786
000010 4c ff 84 3c 5e bf 33 3d 4c 83 cf 3d c1 d1 59 bc
       0.016235016 0.043883674 0.10132465 -0.013294638
000020 d7 bb 70 3e 8e d9 0c 3e 46 37 85 3d 43 74 61 bc
       0.23509155 0.13754866 0.06504683 -0.013760629
000030 1c 89 83 3d 4c d7 73 3e 71 c9 b8 3d ca 41 9b 3d
       0.06422636 0.23812598 0.09022797 0.07580908
000040 f6 e1 d5 3d 4c 89 22 bc 14 43 df 3d e8 fb f1 bd
       0.10443489 -0.009920429 0.10901466 -0.118156254
000050 a1 07 bf 3d ef 19 ca bc 72 53 ce 3d 01 aa c8 3d
       0.09327627 -0.02467057 0.1007451 0.09798051
000060 fc 7c 26 3e 1b 53 a6 bd 27 49 0a be 47 2c 4a 3e
       0.16258615 -0.0812132 -0.13504468 0.19743453
000070 58 89 df 3c e5 b8 2c bd 35 a5 cd 3d 3d 28 a9 bd
       0.02728717 -0.042168517 0.10041276 -0.08259628
000080 23 7d ed 3b f4 c0 0f bd 7a d5 55 3d 18 4d 70 3e
       0.0072475835 -0.035096124 0.05220554 0.23466909
000090 15 cf 14 be 37 2a c0 bd 82 3d 68 3e f1 28 04 3c
       -0.1453212 -0.09383052 0.22679713 0.008066402
0000a0 45 6e 56 3e 2c 88 10 be 47 e8 ef bd db b1 8b 3c
       0.20940502 -0.14114445 -0.11714225 0.017052582
0000b0 5f c8 42 3e 2d 28 ed bd ff 62 da bd 34 37 9a bd
       0.19021748 -0.115799285 -0.10663413 -0.075300604
0000c0 85 0e 1a 3e ae 70 3e 3d 41 c3 04 3e 85 cb 1d bc
       0.15044601 0.04649418 0.12965108 -0.009631042
0000d0 e3 db 22 be 10 02 b5 bc 9c 63 46 3d fc 2d 31 3c
       -0.15904193 -0.02209571 0.04843484 0.010814186
0000e0 e8 c8 b1 bd 25 c2 0a 39 84 e2 ad 3d 3e c3 2f 3d
       -0.08680898 0.0001323303 0.0849047 0.042910807
0000f0 fe cf 09 3e 0d 9b b8 3c 9b e9 a5 bc a3 d9 c8 3d
       0.13458249 0.022534871 -0.020252993 0.09807136
000100 b9 dd c2 bd 78 2f 83 bd 3e 22 27 be 0b 11 f4 3b
       -0.095149465 -0.06405538 -0.16321656 0.0074483207
000110 6e 77 e7 bd 03 d7 0c 3e 11 a4 01 bd 0c 03 ea 3b
       -0.11302076 0.13753895 -0.031650607 0.0071414765
000120 21 f4 a2 bd 5e 54 c4 bd 47 de fd 3d fc df f5 bc
       -0.0795672 -0.09586404 0.12395912 -0.03001403
000130 4e d6 94 bc 0d d5 f4 bc 37 32 95 bd 5e 33 c8 3d
       -0.018168595 -0.029886747 -0.07284968 0.097754225
000140 53 36 49 3e 01 02 cc 3d d5 47 d4 3d 0d 2b 06 be
       0.1964963 0.0996132 0.103652634 -0.1310236
000150 84 8e 94 bd 00 9c 01 be fa 52 b2 3b 8e 9b 11 bb
       -0.07253745 -0.12657166 0.0054420205 -0.0022217962
000160 6b e3 47 3d cf 6a fb 3d fd 2b ea 3d be 30 c9 3d
       0.048800867 0.122762315 0.11434171 0.0982375
000170 3c a5 d1 3d d9 a4 95 3d 58 ea 99 3d a2 32 57 be
       0.10236594 0.07306833 0.07515401 -0.21015409
000180 04 df 07 3e ee d8 56 be d2 00 0f 3d bd 39 dd 3d
       0.13268667 -0.2098119 0.03491289 0.10802028
000190 ee ff d3 bd 4a f1 ff bc e9 2f 05 3e 22 2d b1 3d
       -0.10351549 -0.031242985 0.13006558 0.086511865
0001a0 0e 61 81 3d 28 7b d0 bc eb 9d f9 3d e9 cc e7 bd
       0.0631734 -0.02544935 0.121883236 -0.113183804
0001b0 f1 28 be bd 8a de c9 bc 37 58 41 be be 7e 74 bd
       -0.09285153 -0.024642248 -0.18881308 -0.059691183
0001c0 9c 97 95 3b 2c b7 76 bd 00 1d ba 3d d1 77 1d 3e
       0.0045651924 -0.06023328 0.090875626 0.15377738
0001d0 e2 d5 ab bc 61 b5 2c 3e e0 ba 05 bd a9 e2 27 bd
       -0.02097601 0.16866066 -0.03264892 -0.040987644
0001e0 57 39 af 3d 04 84 a7 bd 8d ef b5 bc f8 77 17 3d
       0.085558586 -0.08179477 -0.022208953 0.036979645
0001f0 7d 12 fa 3d 7e ab 01 3e 12 0b 24 3e ff bd 2d 3e
       0.122105576 0.12663075 0.16019848 0.16967009
000200 b1 8b 69 3d 7c f7 c5 bd aa 41 14 be 6d 30 29 3e
       0.057017986 -0.096663445 -0.14478174 0.16522379
000210 1b 70 a0 bd 5f dc 92 3c 5b 34 a4 bd a6 5c 90 3b
       -0.078338824 0.017927347 -0.080177985 0.004405576
000220 5e 64 a7 3d bf ab 65 3e 45 10 1c 3d fd e4 0a bc
       0.081734404 0.22428797 0.038101453 -0.008477447
000230 1e 81 d1 3d 15 ea c8 bd 4a 4b 2c 3e 63 89 3d bc
       0.10229705 -0.098102726 0.16825595 -0.0115684
000240 dc 38 2a bd 64 9e 5e bd 72 07 96 bd 6e 5d f1 3b
       -0.04155813 -0.05435027 -0.07325639 0.007365874
000250 d3 bf be 3d 2b f8 f0 bc 6d eb 09 3d ed ce d3 bd
       0.09313931 -0.02941521 0.033671785 -0.10342202
000260 4d d6 9a bd 8d fd 3e 3e cc 46 98 3a a2 ba 50 3e
       -0.07560406 0.1865141 0.0011617779 0.20383695
000270 c7 e8 da 3d 76 be 3f bd 59 40 5b bc 76 3d b6 bd
       0.1068893 -0.046812497 -0.013382041 -0.088984415

exp_avg f4 [1, 40]
000000 36 21 13 37 1f 86 a3 36 56 f0 0c 37 8d 38 bb b7
       8.769615e-06 4.8733923e-06 8.400608e-06 -2.231847e-05
000010 57 c8 63 b7 fa 26 4a b6 5d 73 c8 36 1b 35 1b b7
       -1.35769e-05 -3.0123033e-06 5.9738945e-06 -9.2510845e-06
000020 f2 15 9b b6 11 cf 80 37 aa b6 cd 36 c2 bb 8c 37
       -4.6219147e-06 1.5355212e-05 6.130741e-06 1.6776732e-05
000030 26 d7 c6 b6 ef d7 2b 37 6b a6 56 b6 f8 4b 37 b7
       -5.9259064e-06 1.024267e-05 -3.1985353e-06 -1.0925338e-05
000040 da 42 d2 37 e9 c7 ae 35 d4 8f 93 36 47 c1 5f 36
       2.5065081e-05 1.3022192e-06 4.397685e-06 3.3342092e-06
000050 97 d1 a7 b7 e4 ae 44 37 80 cc 0a 37 b2 0b 4a 37
       -2.000555e-05 1.172323e-05 8.273055e-06 1.2042861e-05
000060 b9 d6 0d b7 eb 75 16 37 90 6c ba b5 8d 24 e3 b6
       -8.454249e-06 8.968152e-06 -1.3889676e-06 -6.7693823e-06
000070 b6 43 85 b6 d8 63 f6 36 6a 74 5a b7 60 ea 43 b7
       -3.9715915e-06 7.3429946e-06 -1.3020917e-05 -1.1677475e-05
000080 c3 0b 2e b6 ce cd 32 b7 16 f4 1e 37 ea 2e 55 37
       -2.5934867e-06 -1.0657544e-05 9.474365e-06 1.2706712e-05
000090 c5 c2 8a b6 35 73 20 37 e8 69 d1 b6 52 21 e7 b6
       -4.1353946e-06 9.563567e-06 -6.2410145e-06 -6.8882155e-06
